…
filters:            [2, 2, 2, 2, 2]
weight_init:        kaiming-uniform
conv_actv:          ['elu']
fc_actv:            ['elu']
pooling:            max
lr:                 0.001
decay:              1.0
reduce_on_plateau:  False
batch_size:         32
epochs:             10
update_freq:        1
cuda:               True
debug_size:         None
silent:             False
test_model:         None
----------------------------------------------------------------
        Layer (type)               Output Shape         Param #
================================================================
     ConstantPad3d-1      [-1, 4, 104, 104, 72]               0
            Conv3d-2      [-1, 8, 100, 100, 68]           1,008
         MaxPool3d-3        [-1, 8, 50, 50, 34]               0
     ConstantPad3d-4        [-1, 8, 50, 50, 34]               0
            Conv3d-5       [-1, 16, 47, 47, 31]           1,040
         MaxPool3d-6       [-1, 16, 24, 24, 16]               0
     ConstantPad3d-7       [-1, 16, 24, 24, 16]               0
            Conv3d-8       [-1, 32, 21, 21, 13]           2,080
         MaxPool3d-9        [-1, 32, 11, 11, 7]               0
    ConstantPad3d-10        [-1, 32, 11, 11, 7]               0
           Conv3d-11        [-1, 64, 10, 10, 6]             576
        MaxPool3d-12          [-1, 64, 5, 5, 3]               0
    ConstantPad3d-13          [-1, 64, 5, 5, 3]               0
           Conv3d-14         [-1, 128, 4, 4, 2]           1,152
        MaxPool3d-15         [-1, 128, 2, 2, 1]               0
          Dropout-16                  [-1, 512]               0
           Linear-17                  [-1, 256]         131,328
           Linear-18                  [-1, 100]          25,700
           Linear-19                    [-1, 1]             101
================================================================
Total params: 162,985
Trainable params: 162,985
Non-trainable params: 0
\end{lstlisting}


## Learning Rate and Batch Size Grid Search
The ideal learning rate is highly dependent upon batch size.  This is because larger batch sizes result in more stable training, and allow for larger learning rates to be applied.  However, larger ba
…
