…
decay:              0.925
reduce_on_plateau:  False
batch_size:         64
epochs:             40
update_freq:        1
cuda:               True
loss:               L2
debug_size:         None
silent:             False
test_model:         None
encode_age:         False

Fetching training data ...
Fetching test data ...
Initializing model ...
tensor([[0.6100]])
torch.Size([1, 1])
----------------------------------------------------------------
        Layer (type)               Output Shape         Param #
================================================================
     ConstantPad3d-1      [-1, 4, 104, 104, 72]               0
            Conv3d-2      [-1, 8, 100, 100, 68]           1,008
         MaxPool3d-3        [-1, 8, 50, 50, 34]               0
     ConstantPad3d-4        [-1, 8, 50, 50, 34]               0
            Conv3d-5       [-1, 16, 47, 47, 31]           1,040
         MaxPool3d-6       [-1, 16, 24, 24, 16]               0
     ConstantPad3d-7       [-1, 16, 24, 24, 16]               0
            Conv3d-8       [-1, 32, 21, 21, 13]           2,080
         MaxPool3d-9        [-1, 32, 11, 11, 7]               0
    ConstantPad3d-10        [-1, 32, 11, 11, 7]               0
           Conv3d-11        [-1, 64, 10, 10, 6]             576
        MaxPool3d-12          [-1, 64, 5, 5, 3]               0
    ConstantPad3d-13          [-1, 64, 5, 5, 3]               0
           Conv3d-14         [-1, 128, 4, 4, 2]           1,152
        MaxPool3d-15         [-1, 128, 2, 2, 1]               0
          Dropout-16                  [-1, 512]               0
           Linear-17                  [-1, 256]         131,328
           Linear-18                  [-1, 100]          25,700
           Linear-19                    [-1, 1]             101
================================================================
Total params: 162,985
Trainable params: 162,985
Non-trainable params: 0
----------------------------------------------------------------
Input size (MB): 11.88
Forward/backward pass size (MB): 88.48
Params size (MB): 0.62
Estimated Total Size (MB): 100.98
----------------------------------------------------------------
Epoch:   0 T
…
